…
	module.adapter.linear_fc1.linear.weight
	module.adapter.layernorm.weight
	module.adapter.linear_fc2.linear.bias
	module.adapter.linear_fc1.linear.bias
	module.adapter.linear_fc2.linear.weight
[DistributedDataParallel(
  (module): Float16Module(
    (module): LlavaOnevision1_5(
      (vision_model): FastViTModel(
        (vision_tower): MobileCLIPVisionTower(
          (vision_tower): MCi(
            (model): FastViT(
              (patch_embed): Sequential(
                (0): MobileOneBlock(
                  (se): Identity()
                  (activation): GELU(approximate='none')
                  (reparam_conv): Conv2d(3, 96, kernel_size=(3, 3), stride=(2, 2), padding=(1, 1))
                )
                (1): MobileOneBlock(
                  (se): Identity()
                  (activation): GELU(approximate='none')
                  (reparam_conv): Conv2d(96, 96, kernel_size=(3, 3), stride=(2, 2), padding=(1, 1), groups=96)
                )
                (2): MobileOneBlock(
                  (se): Identity()
                  (activation): GELU(approximate='none')
                  (reparam_conv): Conv2d(96, 96, kernel_size=(1, 1), stride=(1, 1))
                )
              )
              (network): ModuleList(
                (0): Sequential(
                  (0): RepMixerBlock(
                    (token_mixer): RepMixer(
                      (reparam_conv): Conv2d(96, 96, kernel_size=(3, 3), stride=(1, 1), padding=(1, 1), groups=96)
                    )
                    (convffn): ConvFFN(
                      (conv): Sequential(
                        (conv): Conv2d(96, 96, kernel_size=(7, 7), stride=(1, 1), padding=(3, 3), groups=96, bias=False)
                        (bn): BatchNorm2d(96, eps=1e-05, momentum=0.1, affine=True, track_running_stats=True)
                      )
                      (fc1): Conv2d(96, 384, kernel_size=(1, 1), stride=(1, 1))
                      (act): GELU(approximate='none')
                      (fc2): Conv2d(384, 96, kernel_size=(1, 1), stride=(1, 1))
                      (drop): Dropout(p=0.0, inplace=False)
                    )
                    (drop_path): Identity()
                  )
                  (1): RepMixerBlock(
                    (token_mixer): RepMixer(
                      (reparam_conv): Conv2d(96, 96, kernel_size=(3, 3), stride=(1, 1), padding=(1, 1), groups=96)
                    )
                    (convffn): ConvFFN(
                      (conv): Sequential(
                        (conv): Conv2d(96, 96, kernel_size=(7, 7), stride=(1, 1), padding=(3, 3), groups=96, bias=False)
                        (bn): BatchNorm2d(96, eps=1e-05, momentum=0.1, affine=True, track_running_stats=True)
                      )
                      (fc1): Conv2d(96, 384, kernel_size=(1, 1), stride=(1, 1))
                      (act): GELU(approximate='none')
                      (fc2): Conv2d(384, 96, kernel_size=(1, 1), stride=(1, 1))
                      (drop): Dropout(p=0.0, inplace=False)
                    )
                    (drop_path): Identity()
                  )
                )
                (1): PatchEmbed(
                  (proj): Sequential(
                    (0): ReparamLargeKernelConv(
                      (activation): GELU(approximate='none')
                      (se): Identity()
                      (lkb_reparam): Conv2d(96, 192, kernel_size=(7, 7), stride=(2, 2), padding=(3, 3), groups=96)
                    )
                    (1): MobileOneBlock(
                      (se): Identity()
                      (activation): GELU(approximate='none')
                      (reparam_conv): Conv2d(192, 192, kernel_size=(1, 1), stride=(1, 1))
                    )
                  )
                )
                (2): Sequential(
                  (0): RepMixerBlock(
                    (token_mixer): RepMixer(
                      (reparam_conv): Conv2d(192, 192, kernel_size=(3, 3), stride=(1, 1), padding=(1, 1), groups=192)
                    )
                    (convffn): ConvFFN(
                      (conv): Sequential(
                        (conv): Conv2d(192, 192, kernel_size=(7, 7), stride=(1, 1), padding=(3, 3), groups=192, bias=False)
                        (bn): BatchNorm2d(192, eps=1e-05, momentum=0.1, affine=True, track_running_stats=True)
                      )
                      (fc1): Conv2d(192, 768, kernel_size=(1, 1), stride=(1, 1))
                      (act): GELU(approximate='none')
                      (fc2): Conv2d(768, 192, kernel_size=(1, 1), stride=(1, 1))
                      (drop): Dropout(p=0.0, inplace=False)
                    )
                    (drop_path): Identity()
                  )
                  (1): RepMixerBlock(
                    (token_mixer): RepMixer(
                      (reparam_conv): Conv2d(192, 192, kernel_size=(3, 3), stride=(1, 1), padding=(1, 1), groups=192)
                    )
                    (convffn): ConvFFN(
                      (conv): Sequential(
                        (conv): Conv2d(192, 192, kernel_size=(7, 7), stride=(1, 1), padding=(3, 3), groups=192, bias=False)
                        (bn): BatchNorm2d(192, eps=1e-05, momentum=0.1, affine=True, track_running_stats=True)
                      )
                      (fc1): Conv2d(192, 768, kernel_size=(1, 1), stride=(1, 1))
                      (act): GELU(approximate='none')
                      (fc2): Conv2d(768, 192, kernel_size=(1, 1), stride=(1, 1))
                      (drop): Dropout(p=0.0, inplace=False)
                    )
                    (drop_path): Identity()
                  )
                  (2): RepMixerBlock(
                    (token_mixer): RepMixer(
                      (reparam_conv): Conv2d(192, 192, kernel_size=(3, 3), stride=(1, 1), padding=(1, 1), groups=192)
                    )
                    (convffn): ConvFFN(
                      (conv): Sequential(
                        (conv): Conv2d(192, 192, kernel_size=(7, 7), stride=(1, 1), padding=(3, 3), groups=192, bias=False)
                        (bn): BatchNorm2d(192, eps=1e-05, momentum=0.1, affine=True, track_running_stats=True)
                      )
                      (fc1): Conv2d(192, 768, kernel_size=(1, 1), stride=(1, 1))
                      (act): GELU(approximate='none')
                      (fc2): Conv2d(768, 192, kernel_size=(1, 1), stride=(1, 1))
                      (drop): Dropout(p=0.0, inplace=False)
                    )
                    (drop_path): Identity()
                  )
                  (3): RepMixerBlock(
                    (token_mixer): RepMixer(
                      (reparam_conv): Conv2d(192, 192, kernel_size=(3, 3), stride=(1, 1), padding=(1, 1), groups=192)
                    )
                    (convffn): ConvFFN(
                      (conv): Sequential(
                        (conv): Conv2d(192, 192, kernel_size=(7, 7), stride=(1, 1), padding=(3, 3), groups=192, bias=False)
                        (bn): BatchNorm2d(192, eps=1e-05, momentum=0.1, affine=True, track_running_stats=True)
                      )
                      (fc1): Conv2d(192, 768, kernel_size=(1, 1), stride=(1, 1))
                      (act): GELU(approximate='none')
                      (fc2): Conv2d(768, 192, kernel_size=(1, 1), stride=(1, 1))
                      (drop): Dropout(p=0.0, inplace=False)
                    )
                    (drop_path): Identity()
                  )
                  (4): RepMixerBlock(
                    (token_mixer): RepMixer(
                      (reparam_conv): Conv2d(192, 192, kernel_size=(3, 3), stride=(1, 1), padding=(1, 1), groups=192)
                    )
                    (convffn): ConvFFN(
                      (conv): Sequential(
                        (conv): Conv2d(192, 192, kernel_size=(7, 7), stride=(1, 1), padding=(3, 3), groups=192, bias=False)
                        (bn): BatchNorm2d(192, eps=1e-05, momentum=0.1, affine=True, track_running_stats=True)
                      )
                      (fc1): Conv2d(192, 768, kernel_size=(1, 1), stride=(1, 1))
                      (act): GELU(approximate='none')
                      (fc2): Conv2d(768, 192, kernel_size=(1, 1), stride=(1, 1))
                      (drop): Dropout(p=0.0, inplace=False)
                    )
                    (drop_path): Identity()
                  )
                  (5): RepMixerBlock(
                    (token_mixer): RepMixer(
                      (reparam_conv): Conv2d(192, 192, kernel_size=(3, 3), stride=(1, 1), padding=(1, 1), groups=192)
                    )
                    (convffn): ConvFFN(
                      (conv): Sequential(
                        (conv): Conv2d(192, 192, kernel_size=(7, 7), stride=(1, 1), padding=(3, 3), groups=192, bias=False)
                        (bn): BatchNorm2d(192, eps=1e-05, momentum=0.1, affine=True, track_running_stats=True)
                      )
                      (fc1): Conv2d(192, 768, kernel_size=(1, 1), stride=(1, 1))
                      (act): GELU(approximate='none')
                      (fc2): Conv2d(768, 192, kernel_size=(1, 1), stride=(1, 1))
                      (drop): Dropout(p=0.0, inplace=False)
                    )
                    (drop_path): Identity()
                  )
                  (6): RepMixerBlock(
                    (token_mixer): RepMixer(
                      (reparam_conv): Conv2d(192, 192, kernel_size=(3, 3), stride=(1, 1), padding=(1, 1), groups=192)
                    )
                    (convffn): ConvFFN(
                      (conv): Sequential(
                        (conv): Conv2d(192, 192, kernel_size=(7, 7), stride=(1, 1), padding=(3, 3), groups=192, bias=False)
                        (bn): BatchNorm2d(192, eps=1e-05, momentum=0.1, affine=True, track_running_stats=True)
                      )
                      (fc1): Conv2d(192, 768, kernel_size=(1, 1), stride=(1, 1))
                      (act): GELU(approximate='none')
                      (fc2): Conv2d(768, 192, kernel_size=(1, 1), stride=(1, 1))
                      (drop): Dropout(p=0.0, inplace=False)
                    )
                    (drop_path): Identity()
                  )
                  (7): RepMixerBlock(
                    (token_mixer): RepMixer(
                      (reparam_conv): Conv2d(192, 192, kernel_size=(3, 3), stride=(1, 1), padding=(1, 1), groups=192)
                    )
                    (convffn): ConvFFN(
                      (conv): Sequential(
                        (conv): Conv2d(192, 192, kernel_size=(7, 7), stride=(1, 1), padding=(3, 3), groups=192, bias=False)
                        (bn): BatchNorm2d(192, eps=1e-05, momentum=0.1, affine=True, track_running_stats=True)
                      )
                      (fc1): Conv2d(192, 768, kernel_size=(1, 1), stride=(1, 1))
                      (act): GELU(approximate='none')
                      (fc2): Conv2d(768, 192, kernel_size=(1, 1), stride=(1, 1))
                      (drop): Dropout(p=0.0, inplace=False)
                    )
                    (drop_path): Identity()
                  )
                  (8): RepMixerBlock(
                    (token_mixer): RepMixer(
                      (reparam_conv): Conv2d(192, 192, kernel_size=(3, 3), stride=(1, 1), padding=(1, 1), groups=192)
                    )
                    (convffn): ConvFFN(
                      (conv): Sequential(
                        (conv): Conv2d(192, 192, kernel_size=(7, 7), stride=(1, 1), padding=(3, 3), groups=192, bias=False)
                        (bn): BatchNorm2d(192, eps=1e-05, momentum=0.1, affine=True, track_running_stats=True)
                      )
                      (fc1): Conv2d(192, 768, kernel_size=(1, 1), stride=(1, 1))
                      (act): GELU(approximate='none')
                      (fc2): Conv2d(768, 192, kernel_size=(1, 1), stride=(1, 1))
                      (drop): Dropout(p=0.0, inplace=False)
                    )
                    (drop_path): Identity()
                  )
                  (9): RepMixerBlock(
                    (token_mixer): RepMixer(
                      (reparam_conv): Conv2d(192, 192, kernel_size=(3, 3), stride=(1, 1), padding=(1, 1), groups=192)
                    )
                    (convffn): ConvFFN(
                      (conv): Sequential(
                        (conv): Conv2d(192, 192, kernel_size=(7, 7), stride=(1, 1), padding=(3, 3), groups=192, bias=False)
                        (bn): BatchNorm2d(192, eps=1e-05, momentum=0.1, affine=True, track_running_stats=True)
                      )
                      (fc1): Conv2d(192, 768, kernel_size=(1, 1), stride=(1, 1))
                      (act): GELU(approximate='none')
                      (fc2): Conv2d(768, 192, kernel_size=(1, 1), stride=(1, 1))
                      (drop): Dropout(p=0.0, inplace=False)
                    )
                    (drop_path): Identity()
                  )
                  (10): RepMixerBlock(
                    (token_mixer): RepMixer(
                      (reparam_conv): Conv2d(192, 192, kernel_size=(3, 3), stride=(1, 1), padding=(1, 1), groups=192)
                    )
                    (convffn): ConvFFN(
                      (conv): Sequential(
                        (conv): Conv2d(192, 192, kernel_size=(7, 7), stride=(1, 1), padding=(3, 3), groups=192, bias=False)
                        (bn): BatchNorm2d(192, eps=1e-05, momentum=0.1, affine=True, track_running_stats=True)
                      )
                      (fc1): Conv2d(192, 768, kernel_size=(1, 1), stride=(1, 1))
                      (act): GELU(approximate='none')
                      (fc2): Conv2d(768, 192, kernel_size=(1, 1), stride=(1, 1))
                      (drop): Dropout(p=0.0, inplace=False)
                    )
                    (drop_path): Identity()
                  )
                  (11): RepMixerBlock(
                    (token_mixer): RepMixer(
                      (reparam_conv): Conv2d(192, 192, kernel_size=(3, 3), stride=(1, 1), padding=(1, 1), groups=192)
                    )
                    (convffn): ConvFFN(
                      (conv): Sequential(
                        (conv): Conv2d(192, 192, kernel_size=(7, 7), stride=(1, 1), padding=(3, 3), groups=192, bias=False)
                        (bn): BatchNorm2d(192, eps=1e-05, momentum=0.1, affine=True, track_running_stats=True)
                      )
                      (fc1): Conv2d(192, 768, kernel_size=(1, 1), stride=(1, 1))
                      (act): GELU(approximate='none')
                      (fc2): Conv2d(768, 192, kernel_size=(1, 1), stride=(1, 1))
                      (drop): Dropout(p=0.0, inplace=False)
                    )
                    (drop_path): Identity()
                  )
                )
                (3): PatchEmbed(
                  (proj): Sequential(
                    (0): ReparamLargeKernelConv(
                      (activation): GELU(approximate='none')
                      (se): Identity()
                      (lkb_reparam): Conv2d(192, 384, kernel_size=(7, 7), stride=(2, 2), padding=(3, 3), groups=192)
                    )
                    (1): MobileOneBlock(
                      (se): Identity()
                      (activation): GELU(approximate='none')
                      (reparam_conv): Conv2d(384, 384, kernel_size=(1, 1), stride=(1, 1))
                    )
                  )
                )
                (4): Sequential(
                  (0): RepMixerBlock(
                    (token_mixer): RepMixer(
                      (reparam_conv): Conv2d(384, 384, kernel_size=(3, 3), stride=(1, 1), padding=(1, 1), groups=384)
                    )
                    (convffn): ConvFFN(
                      (conv): Sequential(
                        (conv): Conv2d(384, 384, kernel_size=(7, 7), stride=(1, 1), padding=(3, 3), groups=384, bias=False)
                        (bn): BatchNorm2d(384, eps=1e-05, momentum=0.1, affine=True, track_running_stats=True)
                      )
                      (fc1): Conv2d(384, 1536, kernel_size=(1, 1), stride=(1, 1))
                      (act): GELU(approximate='none')
                      (fc2): Conv2d(1536, 384, kernel_size=(1, 1), stride=(1, 1))
                      (drop): Dropout(p=0.0, inplace=False)
                    )
                    (drop_path): Identity()
                  )
                  (1): RepMixerBlock(
                    (token_mixer): RepMixer(
                      (reparam_conv): Conv2d(384, 384, kernel_size=(3, 3), stride=(1, 1), padding=(1, 1), groups=384)
                    )
                    (convffn): ConvFFN(
                      (conv): Sequential(
                        (conv): Conv2d(384, 384, kernel_size=(7, 7), stride=(1, 1), padding=(3, 3), groups=384, bias=False)
                        (bn): BatchNorm2d(384, eps=1e-05, momentum=0.1, affine=True, track_running_stats=True)
                      )
                      (fc1): Conv2d(384, 1536, kernel_size=(1, 1), stride=(1, 1))
                      (act): GELU(approximate='none')
                      (fc2): Conv2d(1536, 384, kernel_size=(1, 1), stride=(1, 1))
                      (drop): Dropout(p=0.0, inplace=False)
                    )
                    (drop_path): Identity()
                  )
                  (2): RepMixerBlock(
                    (token_mixer): RepMixer(
                      (reparam_conv): Conv2d(384, 384, kernel_size=(3, 3), stride=(1, 1), padding=(1, 1), groups=384)
                    )
                    (convffn): ConvFFN(
                      (conv): Sequential(
                        (conv): Conv2d(384, 384, kernel_size=(7, 7), stride=(1, 1), padding=(3, 3), groups=384, bias=False)
                        (bn): BatchNorm2d(384, eps=1e-05, momentum=0.1, affine=True, track_running_stats=True)
                      )
                      (fc1): Conv2d(384, 1536, kernel_size=(1, 1), stride=(1, 1))
                      (act): GELU(approximate='none')
                      (fc2): Conv2d(1536, 384, kernel_size=(1, 1), stride=(1, 1))
                      (drop): Dropout(p=0.0, inplace=False)
                    )
                    (drop_path): Identity()
                  )
                  (3): RepMixerBlock(
                    (token_mixer): RepMixer(
                      (reparam_conv): Conv2d(384, 384, kernel_size=(3, 3), stride=(1, 1), padding=(1, 1), groups=384)
                    )
                    (convffn): ConvFFN(
                      (conv): Sequential(
                        (conv): Conv2d(384, 384, kernel_size=(7, 7), stride=(1, 1), padding=(3, 3), groups=384, bias=False)
                        (bn): BatchNorm2d(384, eps=1e-05, momentum=0.1, affine=True, track_running_stats=True)
                      )
                      (fc1): Conv2d(384, 1536, kernel_size=(1, 1), stride=(1, 1))
                      (act): GELU(approximate='none')
                      (fc2): Conv2d(1536, 384, kernel_size=(1, 1), stride=(1, 1))
                      (drop): Dropout(p=0.0, inplace=False)
                    )
                    (drop_path): Identity()
                  )
                  (4): RepMixerBlock(
                    (token_mixer): RepMixer(
                      (reparam_conv): Conv2d(384, 384, kernel_size=(3, 3), stride=(1, 1), padding=(1, 1), groups=384)
                    )
                    (convffn): ConvFFN(
                      (conv): Sequential(
                        (conv): Conv2d(384, 384, kernel_size=(7, 7), stride=(1, 1), padding=(3, 3), groups=384, bias=False)
                        (bn): BatchNorm2d(384, eps=1e-05, momentum=0.1, affine=True, track_running_stats=True)
                      )
                      (fc1): Conv2d(384, 1536, kernel_size=(1, 1), stride=(1, 1))
                      (act): GELU(approximate='none')
                      (fc2): Conv2d(1536, 384, kernel_size=(1, 1), stride=(1, 1))
                      (drop): Dropout(p=0.0, inplace=False)
                    )
                    (drop_path): Identity()
                  )
                  (5): RepMixerBlock(
                    (token_mixer): RepMixer(
                      (reparam_conv): Conv2d(384, 384, kernel_size=(3, 3), stride=(1, 1), padding=(1, 1), groups=384)
                    )
                    (convffn): ConvFFN(
                      (conv): Sequential(
                        (conv): Conv2d(384, 384, kernel_size=(7, 7), stride=(1, 1), padding=(3, 3), groups=384, bias=False)
                        (bn): BatchNorm2d(384, eps=1e-05, momentum=0.1, affine=True, track_running_stats=True)
                      )
                      (fc1): Conv2d(384, 1536, kernel_size=(1, 1), stride=(1, 1))
                      (act): GELU(approximate='none')
                      (fc2): Conv2d(1536, 384, kernel_size=(1, 1), stride=(1, 1))
                      (drop): Dropout(p=0.0, inplace=False)
                    )
                    (drop_path): Identity()
                  )
                  (6): RepMixerBlock(
                    (token_mixer): RepMixer(
                      (reparam_conv): Conv2d(384, 384, kernel_size=(3, 3), stride=(1, 1), padding=(1, 1), groups=384)
                    )
                    (convffn): ConvFFN(
                      (conv): Sequential(
                        (conv): Conv2d(384, 384, kernel_size=(7, 7), stride=(1, 1), padding=(3, 3), groups=384, bias=False)
                        (bn): BatchNorm2d(384, eps=1e-05, momentum=0.1, affine=True, track_running_stats=True)
                      )
                      (fc1): Conv2d(384, 1536, kernel_size=(1, 1), stride=(1, 1))
                      (act): GELU(approximate='none')
                      (fc2): Conv2d(1536, 384, kernel_size=(1, 1), stride=(1, 1))
                      (drop): Dropout(p=0.0, inplace=False)
                    )
                    (drop_path): Identity()
                  )
                  (7): RepMixerBlock(
                    (token_mixer): RepMixer(
                      (reparam_conv): Conv2d(384, 384, kernel_size=(3, 3), stride=(1, 1), padding=(1, 1), groups=384)
                    )
                    (convffn): ConvFFN(
                      (conv): Sequential(
                        (conv): Conv2d(384, 384, kernel_size=(7, 7), stride=(1, 1), padding=(3, 3), groups=384, bias=False)
                        (bn): BatchNorm2d(384, eps=1e-05, momentum=0.1, affine=True, track_running_stats=True)
                      )
                      (fc1): Conv2d(384, 1536, kernel_size=(1, 1), stride=(1, 1))
                      (act): GELU(approximate='none')
                      (fc2): Conv2d(1536, 384, kernel_size=(1, 1), stride=(1, 1))
                      (drop): Dropout(p=0.0, inplace=False)
                    )
                    (drop_path): Identity()
                  )
                  (8): RepMixerBlock(
                    (token_mixer): RepMixer(
                      (reparam_conv): Conv2d(384, 384, kernel_size=(3, 3), stride=(1, 1), padding=(1, 1), groups=384)
                    )
                    (convffn): ConvFFN(
                      (conv): Sequential(
                        (conv): Conv2d(384, 384, kernel_size=(7, 7), stride=(1, 1), padding=(3, 3), groups=384, bias=False)
                        (bn): BatchNorm2d(384, eps=1e-05, momentum=0.1, affine=True, track_running_stats=True)
                      )
                      (fc1): Conv2d(384, 1536, kernel_size=(1, 1), stride=(1, 1))
                      (act): GELU(approximate='none')
                      (fc2): Conv2d(1536, 384, kernel_size=(1, 1), stride=(1, 1))
                      (drop): Dropout(p=0.0, inplace=False)
                    )
                    (drop_path): Identity()
                  )
                  (9): RepMixerBlock(
                    (token_mixer): RepMixer(
                      (reparam_conv): Conv2d(384, 384, kernel_size=(3, 3), stride=(1, 1), padding=(1, 1), groups=384)
                    )
                    (convffn): ConvFFN(
                      (conv): Sequential(
                        (conv): Conv2d(384, 384, kernel_size=(7, 7), stride=(1, 1), padding=(3, 3), groups=384, bias=False)
                        (bn): BatchNorm2d(384, eps=1e-05, momentum=0.1, affine=True, track_running_stats=True)
                      )
                      (fc1): Conv2d(384, 1536, kernel_size=(1, 1), stride=(1, 1))
                      (act): GELU(approximate='none')
                      (fc2): Conv2d(1536, 384, kernel_size=(1, 1), stride=(1, 1))
                      (drop): Dropout(p=0.0, inplace=False)
                    )
                    (drop_path): Identity()
                  )
                  (10): RepMixerBlock(
                    (token_mixer): RepMixer(
                      (reparam_conv): Conv2d(384, 384, kernel_size=(3, 3), stride=(1, 1), padding=(1, 1), groups=384)
                    )
                    (convffn): ConvFFN(
                      (conv): Sequential(
                        (conv): Conv2d(384, 384, kernel_size=(7, 7), stride=(1, 1), padding=(3, 3), groups=384, bias=False)
                        (bn): BatchNorm2d(384, eps=1e-05, momentum=0.1, affine=True, track_running_stats=True)
                      )
                      (fc1): Conv2d(384, 1536, kernel_size=(1, 1), stride=(1, 1))
                      (act): GELU(approximate='none')
                      (fc2): Conv2d(1536, 384, kernel_size=(1, 1), stride=(1, 1))
                      (drop): Dropout(p=0.0, inplace=False)
                    )
                    (drop_path): Identity()
                  )
                  (11): RepMixerBlock(
                    (token_mixer): RepMixer(
                      (reparam_conv): Conv2d(384, 384, kernel_size=(3, 3), stride=(1, 1), padding=(1, 1), groups=384)
                    )
                    (convffn): ConvFFN(
                      (conv): Sequential(
                        (conv): Conv2d(384, 384, kernel_size=(7, 7), stride=(1, 1), padding=(3, 3), groups=384, bias=False)
                        (bn): BatchNorm2d(384, eps=1e-05, momentum=0.1, affine=True, track_running_stats=True)
                      )
                      (fc1): Conv2d(384, 1536, kernel_size=(1, 1), stride=(1, 1))
                      (act): GELU(approximate='none')
                      (fc2): Conv2d(1536, 384, kernel_size=(1, 1), stride=(1, 1))
                      (drop): Dropout(p=0.0, inplace=False)
                    )
                    (drop_path): Identity()
                  )
                  (12): RepMixerBlock(
                    (token_mixer): RepMixer(
                      (reparam_conv): Conv2d(384, 384, kernel_size=(3, 3), stride=(1, 1), padding=(1, 1), groups=384)
                    )
                    (convffn): ConvFFN(
                      (conv): Sequential(
                        (conv): Conv2d(384, 384, kernel_size=(7, 7), stride=(1, 1), padding=(3, 3), groups=384, bias=False)
                        (bn): BatchNorm2d(384, eps=1e-05, momentum=0.1, affine=True, track_running_stats=True)
                      )
                      (fc1): Conv2d(384, 1536, kernel_size=(1, 1), stride=(1, 1))
                      (act): GELU(approximate='none')
                      (fc2): Conv2d(1536, 384, kernel_size=(1, 1), stride=(1, 1))
                      (drop): Dropout(p=0.0, inplace=False)
                    )
                    (drop_path): Identity()
                  )
                  (13): RepMixerBlock(
                    (token_mixer): RepMixer(
                      (reparam_conv): Conv2d(384, 384, kernel_size=(3, 3), stride=(1, 1), padding=(1, 1), groups=384)
                    )
                    (convffn): ConvFFN(
                      (conv): Sequential(
                        (conv): Conv2d(384, 384, kernel_size=(7, 7), stride=(1, 1), padding=(3, 3), groups=384, bias=False)
                        (bn): BatchNorm2d(384, eps=1e-05, momentum=0.1, affine=True, track_running_stats=True)
                      )
                      (fc1): Conv2d(384, 1536, kernel_size=(1, 1), stride=(1, 1))
                      (act): GELU(approximate='none')
                      (fc2): Conv2d(1536, 384, kernel_size=(1, 1), stride=(1, 1))
                      (drop): Dropout(p=0.0, inplace=False)
                    )
                    (drop_path): Identity()
                  )
                  (14): RepMixerBlock(
                    (token_mixer): RepMixer(
                      (reparam_conv): Conv2d(384, 384, kernel_size=(3, 3), stride=(1, 1), padding=(1, 1), groups=384)
                    )
                    (convffn): ConvFFN(
                      (conv): Sequential(
                        (conv): Conv2d(384, 384, kernel_size=(7, 7), stride=(1, 1), padding=(3, 3), groups=384, bias=False)
                        (bn): BatchNorm2d(384, eps=1e-05, momentum=0.1, affine=True, track_running_stats=True)
                      )
                      (fc1): Conv2d(384, 1536, kernel_size=(1, 1), stride=(1, 1))
                      (act): GELU(approximate='none')
                      (fc2): Conv2d(1536, 384, kernel_size=(1, 1), stride=(1, 1))
                      (drop): Dropout(p=0.0, inplace=False)
                    )
                    (drop_path): Identity()
                  )
                  (15): RepMixerBlock(
                    (token_mixer): RepMixer(
                      (reparam_conv): Conv2d(384, 384, kernel_size=(3, 3), stride=(1, 1), padding=(1, 1), groups=384)
                    )
                    (convffn): ConvFFN(
                      (conv): Sequential(
                        (conv): Conv2d(384, 384, kernel_size=(7, 7), stride=(1, 1), padding=(3, 3), groups=384, bias=False)
                        (bn): BatchNorm2d(384, eps=1e-05, momentum=0.1, affine=True, track_running_stats=True)
                      )
                      (fc1): Conv2d(384, 1536, kernel_size=(1, 1), stride=(1, 1))
                      (act): GELU(approximate='none')
                      (fc2): Conv2d(1536, 384, kernel_size=(1, 1), stride=(1, 1))
                      (drop): Dropout(p=0.0, inplace=False)
                    )
                    (drop_path): Identity()
                  )
                  (16): RepMixerBlock(
                    (token_mixer): RepMixer(
                      (reparam_conv): Conv2d(384, 384, kernel_size=(3, 3), stride=(1, 1), padding=(1, 1), groups=384)
                    )
                    (convffn): ConvFFN(
                      (conv): Sequential(
                        (conv): Conv2d(384, 384, kernel_size=(7, 7), stride=(1, 1), padding=(3, 3), groups=384, bias=False)
                        (bn): BatchNorm2d(384, eps=1e-05, momentum=0.1, affine=True, track_running_stats=True)
                      )
                      (fc1): Conv2d(384, 1536, kernel_size=(1, 1), stride=(1, 1))
                      (act): GELU(approximate='none')
                      (fc2): Conv2d(1536, 384, kernel_size=(1, 1), stride=(1, 1))
                      (drop): Dropout(p=0.0, inplace=False)
                    )
                    (drop_path): Identity()
                  )
                  (17): RepMixerBlock(
                    (token_mixer): RepMixer(
                      (reparam_conv): Conv2d(384, 384, kernel_size=(3, 3), stride=(1, 1), padding=(1, 1), groups=384)
                    )
                    (convffn): ConvFFN(
                      (conv): Sequential(
                        (conv): Conv2d(384, 384, kernel_size=(7, 7), stride=(1, 1), padding=(3, 3), groups=384, bias=False)
                        (bn): BatchNorm2d(384, eps=1e-05, momentum=0.1, affine=True, track_running_stats=True)
                      )
                      (fc1): Conv2d(384, 1536, kernel_size=(1, 1), stride=(1, 1))
                      (act): GELU(approximate='none')
                      (fc2): Conv2d(1536, 384, kernel_size=(1, 1), stride=(1, 1))
                      (drop): Dropout(p=0.0, inplace=False)
                    )
                    (drop_path): Identity()
                  )
                  (18): RepMixerBlock(
                    (token_mixer): RepMixer(
                      (reparam_conv): Conv2d(384, 384, kernel_size=(3, 3), stride=(1, 1), padding=(1, 1), groups=384)
                    )
                    (convffn): ConvFFN(
                      (conv): Sequential(
                        (conv): Conv2d(384, 384, kernel_size=(7, 7), stride=(1, 1), padding=(3, 3), groups=384, bias=False)
                        (bn): BatchNorm2d(384, eps=1e-05, momentum=0.1, affine=True, track_running_stats=True)
                      )
                      (fc1): Conv2d(384, 1536, kernel_size=(1, 1), stride=(1, 1))
                      (act): GELU(approximate='none')
                      (fc2): Conv2d(1536, 384, kernel_size=(1, 1), stride=(1, 1))
                      (drop): Dropout(p=0.0, inplace=False)
                    )
                    (drop_path): Identity()
                  )
                  (19): RepMixerBlock(
                    (token_mixer): RepMixer(
                      (reparam_conv): Conv2d(384, 384, kernel_size=(3, 3), stride=(1, 1), padding=(1, 1), groups=384)
                    )
                    (convffn): ConvFFN(
                      (conv): Sequential(
                        (conv): Conv2d(384, 384, kernel_size=(7, 7), stride=(1, 1), padding=(3, 3), groups=384, bias=False)
                        (bn): BatchNorm2d(384, eps=1e-05, momentum=0.1, affine=True, track_running_stats=True)
                      )
                      (fc1): Conv2d(384, 1536, kernel_size=(1, 1), stride=(1, 1))
                      (act): GELU(approximate='none')
                      (fc2): Conv2d(1536, 384, kernel_size=(1, 1), stride=(1, 1))
                      (drop): Dropout(p=0.0, inplace=False)
                    )
                    (drop_path): Identity()
                  )
                  (20): RepMixerBlock(
                    (token_mixer): RepMixer(
                      (reparam_conv): Conv2d(384, 384, kernel_size=(3, 3), stride=(1, 1), padding=(1, 1), groups=384)
                    )
                    (convffn): ConvFFN(
                      (conv): Sequential(
                        (conv): Conv2d(384, 384, kernel_size=(7, 7), stride=(1, 1), padding=(3, 3), groups=384, bias=False)
                        (bn): BatchNorm2d(384, eps=1e-05, momentum=0.1, affine=True, track_running_stats=True)
                      )
                      (fc1): Conv2d(384, 1536, kernel_size=(1, 1), stride=(1, 1))
                      (act): GELU(approximate='none')
                      (fc2): Conv2d(1536, 384, kernel_size=(1, 1), stride=(1, 1))
                      (drop): Dropout(p=0.0, inplace=False)
                    )
                    (drop_path): Identity()
                  )
                  (21): RepMixerBlock(
                    (token_mixer): RepMixer(
                      (reparam_conv): Conv2d(384, 384, kernel_size=(3, 3), stride=(1, 1), padding=(1, 1), groups=384)
                    )
                    (convffn): ConvFFN(
                      (conv): Sequential(
                        (conv): Conv2d(384, 384, kernel_size=(7, 7), stride=(1, 1), padding=(3, 3), groups=384, bias=False)
                        (bn): BatchNorm2d(384, eps=1e-05, momentum=0.1, affine=True, track_running_stats=True)
                      )
                      (fc1): Conv2d(384, 1536, kernel_size=(1, 1), stride=(1, 1))
                      (act): GELU(approximate='none')
                      (fc2): Conv2d(1536, 384, kernel_size=(1, 1), stride=(1, 1))
                      (drop): Dropout(p=0.0, inplace=False)
                    )
                    (drop_path): Identity()
                  )
                  (22): RepMixerBlock(
                    (token_mixer): RepMixer(
                      (reparam_conv): Conv2d(384, 384, kernel_size=(3, 3), stride=(1, 1), padding=(1, 1), groups=384)
                    )
                    (convffn): ConvFFN(
                      (conv): Sequential(
                        (conv): Conv2d(384, 384, kernel_size=(7, 7), stride=(1, 1), padding=(3, 3), groups=384, bias=False)
                        (bn): BatchNorm2d(384, eps=1e-05, momentum=0.1, affine=True, track_running_stats=True)
                      )
                      (fc1): Conv2d(384, 1536, kernel_size=(1, 1), stride=(1, 1))
                      (act): GELU(approximate='none')
                      (fc2): Conv2d(1536, 384, kernel_size=(1, 1), stride=(1, 1))
                      (drop): Dropout(p=0.0, inplace=False)
                    )
                    (drop_path): Identity()
                  )
                  (23): RepMixerBlock(
                    (token_mixer): RepMixer(
                      (reparam_conv): Conv2d(384, 384, kernel_size=(3, 3), stride=(1, 1), padding=(1, 1), groups=384)
                    )
                    (convffn): ConvFFN(
                      (conv): Sequential(
                        (conv): Conv2d(384, 384, kernel_size=(7, 7), stride=(1, 1), padding=(3, 3), groups=384, bias=False)
                        (bn): BatchNorm2d(384, eps=1e-05, momentum=0.1, affine=True, track_running_stats=True)
                      )
                      (fc1): Conv2d(384, 1536, kernel_size=(1, 1), stride=(1, 1))
                      (act): GELU(approximate='none')
                      (fc2): Conv2d(1536, 384, kernel_size=(1, 1), stride=(1, 1))
                      (drop): Dropout(p=0.0, inplace=False)
                    )
                    (drop_path): Identity()
                  )
                )
                (5): PatchEmbed(
                  (proj): Sequential(
                    (0): ReparamLargeKernelConv(
                      (activation): GELU(approximate='none')
                      (se): Identity()
                      (lkb_reparam): Conv2d(384, 768, kernel_size=(7, 7), stride=(2, 2), padding=(3, 3), groups=384)
                    )
                    (1): MobileOneBlock(
                      (se): Identity()
                      (activation): GELU(approximate='none')
                      (reparam_conv): Conv2d(768, 768, kernel_size=(1, 1), stride=(1, 1))
                    )
                  )
                )
                (6): RepCPE(
                  (reparam_conv): Conv2d(768, 768, kernel_size=(7, 7), stride=(1, 1), padding=(3, 3), groups=768)
                )
                (7): Sequential(
                  (0): AttentionBlock(
                    (norm): LayerNormChannel()
                    (token_mixer): MHSA(
                      (qkv): Linear(in_features=768, out_features=2304, bias=False)
                      (attn_drop): Dropout(p=0.0, inplace=False)
                      (proj): Linear(in_features=768, out_features=768, bias=True)
                      (proj_drop): Dropout(p=0.0, inplace=False)
                    )
                    (convffn): ConvFFN(
                      (conv): Sequential(
                        (conv): Conv2d(768, 768, kernel_size=(7, 7), stride=(1, 1), padding=(3, 3), groups=768, bias=False)
                        (bn): BatchNorm2d(768, eps=1e-05, momentum=0.1, affine=True, track_running_stats=True)
                      )
                      (fc1): Conv2d(768, 3072, kernel_size=(1, 1), stride=(1, 1))
                      (act): GELU(approximate='none')
                      (fc2): Conv2d(3072, 768, kernel_size=(1, 1), stride=(1, 1))
                      (drop): Dropout(p=0.0, inplace=False)
                    )
                    (drop_path): Identity()
                  )
                  (1): AttentionBlock(
                    (norm): LayerNormChannel()
                    (token_mixer): MHSA(
                      (qkv): Linear(in_features=768, out_features=2304, bias=False)
                      (attn_drop): Dropout(p=0.0, inplace=False)
                      (proj): Linear(in_features=768, out_features=768, bias=True)
                      (proj_drop): Dropout(p=0.0, inplace=False)
                    )
                    (convffn): ConvFFN(
                      (conv): Sequential(
                        (conv): Conv2d(768, 768, kernel_size=(7, 7), stride=(1, 1), padding=(3, 3), groups=768, bias=False)
                        (bn): BatchNorm2d(768, eps=1e-05, momentum=0.1, affine=True, track_running_stats=True)
                      )
                      (fc1): Conv2d(768, 3072, kernel_size=(1, 1), stride=(1, 1))
                      (act): GELU(approximate='none')
                      (fc2): Conv2d(3072, 768, kernel_size=(1, 1), stride=(1, 1))
                      (drop): Dropout(p=0.0, inplace=False)
                    )
                    (drop_path): Identity()
                  )
                  (2): AttentionBlock(
                    (norm): LayerNormChannel()
                    (token_mixer): MHSA(
                      (qkv): Linear(in_features=768, out_features=2304, bias=False)
                      (attn_drop): Dropout(p=0.0, inplace=False)
                      (proj): Linear(in_features=768, out_features=768, bias=True)
                      (proj_drop): Dropout(p=0.0, inplace=False)
                    )
                    (convffn): ConvFFN(
                      (conv): Sequential(
                        (conv): Conv2d(768, 768, kernel_size=(7, 7), stride=(1, 1), padding=(3, 3), groups=768, bias=False)
                        (bn): BatchNorm2d(768, eps=1e-05, momentum=0.1, affine=True, track_running_stats=True)
                      )
                      (fc1): Conv2d(768, 3072, kernel_size=(1, 1), stride=(1, 1))
                      (act): GELU(approximate='none')
                      (fc2): Conv2d(3072, 768, kernel_size=(1, 1), stride=(1, 1))
                      (drop): Dropout(p=0.0, inplace=False)
                    )
                    (drop_path): Identity()
                  )
                  (3): AttentionBlock(
                    (norm): LayerNormChannel()
                    (token_mixer): MHSA(
                      (qkv): Linear(in_features=768, out_features=2304, bias=False)
                      (attn_drop): Dropout(p=0.0, inplace=False)
                      (proj): Linear(in_features=768, out_features=768, bias=True)
                      (proj_drop): Dropout(p=0.0, inplace=False)
                    )
                    (convffn): ConvFFN(
                      (conv): Sequential(
                        (conv): Conv2d(768, 768, kernel_size=(7, 7), stride=(1, 1), padding=(3, 3), groups=768, bias=False)
                        (bn): BatchNorm2d(768, eps=1e-05, momentum=0.1, affine=True, track_running_stats=True)
                      )
                      (fc1): Conv2d(768, 3072, kernel_size=(1, 1), stride=(1, 1))
                      (act): GELU(approximate='none')
                      (fc2): Conv2d(3072, 768, kernel_size=(1, 1), stride=(1, 1))
                      (drop): Dropout(p=0.0, inplace=False)
                    )
                    (drop_path): Identity()
                  )
                )
                (8): PatchEmbed(
                  (proj): Sequential(
                    (0): ReparamLargeKernelConv(
                      (activation): GELU(approximate='none')
                      (se): Identity()
                      (lkb_reparam): Conv2d(768, 1536, kernel_size=(7, 7), stride=(2, 2), padding=(3, 3), groups=768)
                    )
                    (1): MobileOneBlock(
                      (se): Identity()
                      (activation): GELU(approximate='none')
                      (reparam_conv): Conv2d(1536, 1536, kernel_size=(1, 1), stride=(1, 1))
                    )
                  )
                )
                (9): RepCPE(
                  (reparam_conv): Conv2d(1536, 1536, kernel_size=(7, 7), stride=(1, 1), padding=(3, 3), groups=1536)
                )
                (10): Sequential(
                  (0): AttentionBlock(
                    (norm): LayerNormChannel()
                    (token_mixer): MHSA(
                      (qkv): Linear(in_features=1536, out_features=4608, bias=False)
                      (attn_drop): Dropout(p=0.0, inplace=False)
                      (proj): Linear(in_features=1536, out_features=1536, bias=True)
                      (proj_drop): Dropout(p=0.0, inplace=False)
                    )
                    (convffn): ConvFFN(
                      (conv): Sequential(
                        (conv): Conv2d(1536, 1536, kernel_size=(7, 7), stride=(1, 1), padding=(3, 3), groups=1536, bias=False)
                        (bn): BatchNorm2d(1536, eps=1e-05, momentum=0.1, affine=True, track_running_stats=True)
                      )
                      (fc1): Conv2d(1536, 6144, kernel_size=(1, 1), stride=(1, 1))
                      (act): GELU(approximate='none')
                      (fc2): Conv2d(6144, 1536, kernel_size=(1, 1), stride=(1, 1))
                      (drop): Dropout(p=0.0, inplace=False)
                    )
                    (drop_path): Identity()
                  )
                  (1): AttentionBlock(
                    (norm): LayerNormChannel()
                    (token_mixer): MHSA(
                      (qkv): Linear(in_features=1536, out_features=4608, bias=False)
                      (attn_drop): Dropout(p=0.0, inplace=False)
                      (proj): Linear(in_features=1536, out_features=1536, bias=True)
                      (proj_drop): Dropout(p=0.0, inplace=False)
                    )
                    (convffn): ConvFFN(
                      (conv): Sequential(
                        (conv): Conv2d(1536, 1536, kernel_size=(7, 7), stride=(1, 1), padding=(3, 3), groups=1536, bias=False)
                        (bn): BatchNorm2d(1536, eps=1e-05, momentum=0.1, affine=True, track_running_stats=True)
                      )
                      (fc1): Conv2d(1536, 6144, kernel_size=(1, 1), stride=(1, 1))
                      (act): GELU(approximate='none')
                      (fc2): Conv2d(6144, 1536, kernel_size=(1, 1), stride=(1, 1))
                      (drop): Dropout(p=0.0, inplace=False)
                    )
                    (drop_path): Identity()
                  )
                )
              )
              (conv_exp): MobileOneBlock(
                (se): SEBlock(
                  (reduce): Conv2d(3072, 192, kernel_size=(1, 1), stride=(1, 1))
                  (expand): Conv2d(192, 3072, kernel_size=(1, 1), stride=(1, 1))
                )
                (activation): GELU(approximate='none')
                (reparam_conv): Conv2d(1536, 3072, kernel_size=(3, 3), stride=(1, 1), padding=(1, 1), groups=1536)
              )
              (head): GlobalPool2D()
            )
          )
        )
      )
      (adapter): Adapter(
        (layernorm): FusedLayerNorm()
        (linear_fc1): TELinear(
          (linear): Linear(in_features=3072, out_features=3072, bias=True)
        )
        (linear_fc2): TELinear(
          (linear): Linear(in_features=3072, out_features=576, bias=True)
        )
      )
      (language_model): MobileLLMModel(
        (embedding): LanguageModelEmbedding(
          (word_embeddings): VocabParallelEmbedding()
          (embedding_dropout): Dropout(p=0, inplace=False)
        )
        (rotary_pos_emb): RotaryEmbedding()
        (decoder): TransformerBlock(
          (layers): ModuleList(
            (0-14): 15 x TransformerLayer(
              (input_layernorm): IdentityOp()
              (self_attention): SelfAttention(
                (core_attention): DotProductAttention(
                  (attention_dropout): Dropout(p=0, inplace=False)
                )
                (linear_proj): TERowParallelLinear(
                  (linear): Linear(in_features=576, out_features=576, bias=False)
                )
                (linear_qkv): TELayerNormColumnParallelLinear(
                  (ln): LayerNorm((576,), eps=1e-05, elementwise_affine=True)
                  (linear): Linear(in_features=576, out_features=960, bias=False)
                )
                (q_layernorm): TENorm(
                  (ln): LayerNorm((64,), eps=1e-05, elementwise_affine=True)
                )
                (k_layernorm): TENorm(
                  (ln): LayerNorm((64,), eps=1e-05, elementwise_affine=True)
                )
              )
              (pre_cross_attn_layernorm): IdentityOp()
              (cross_attention): IdentityOp()
              (cross_attn_bda): IdentityFuncOp()
              (pre_mlp_layernorm): IdentityOp()
              (mlp): MLP(
                (linear_fc1): TELayerNormColumnParallelLinear(
                  (ln): LayerNorm((576,), eps=1e-05, elementwise_affine=True)
                  (linear): Linear(in_features=576, out_features=4096, bias=False)
                )
                (activation_func): ActivationFuncModule()
                (linear_fc2): TERowParallelLinear(
                  (linear): Linear(in_features=2048, out_features=576, bias=False)
                )
              )
            )
          )
          (final_layernorm): TENorm(
            (ln): LayerNorm((576,), eps=1e-05, elementwise_affine=True)
          )
        )
        (output_layer): ColumnParallelLinear(in_features=576, out_features=128384, bias=False, TP=1)
      )
    )
  )
)]
INFO:megatron.core.optimizer:Setting up optimizer with config OptimizerConfig(optimizer='adam', lr=0.0001, min_lr=1e-06, decoupled_lr=None, decoupled_min_lr=None, weight_decay=0.0, fp8_recipe='delayed', fp16=Fals
…
